…
model                              -           -        [2, 1, 3, 256, 256]        [2, 1, 3, 256, 256]  bfloat16  892.425 
<top-level>                        -           -        [2, 1, 3, 256, 256] + [2]  [2, 1, 3, 256, 256]  float32   892.425 
---                                ---         ---      ---                        ---                  ---       ---     
Total                              83,653,863  0        -                          -                    -         2726.612

DistributedDataParallel(
  (module): LatentDiffusion(
    (autoencoder): DiffusionAutoEncoder(
      (model): DiffusersAutoEncoderBackbone(
        (model): AutoencoderKL(
          (encoder): Encoder(
            (conv_in): Conv2d(3, 128, kernel_size=(3, 3), stride=(1, 1), padding=(1, 1))
            (down_blocks): ModuleList(
              (0): DownEncoderBlock2D(
                (resnets): ModuleList(
                  (0-1): 2 x ResnetBlock2D(
                    (norm1): GroupNorm(32, 128, eps=1e-06, affine=True)
                    (conv1): Conv2d(128, 128, kernel_size=(3, 3), stride=(1, 1), padding=(1, 1))
                    (norm2): GroupNorm(32, 128, eps=1e-06, affine=True)
                    (dropout): Dropout(p=0.0, inplace=False)
                    (conv2): Conv2d(128, 128, kernel_size=(3, 3), stride=(1, 1), padding=(1, 1))
                    (nonlinearity): SiLU()
                  )
                )
                (downsamplers): ModuleList(
                  (0): Downsample2D(
                    (conv): Conv2d(128, 128, kernel_size=(3, 3), stride=(2, 2))
                  )
                )
              )
              (1): DownEncoderBlock2D(
                (resnets): ModuleList(
                  (0): ResnetBlock2D(
                    (norm1): GroupNorm(32, 128, eps=1e-06, affine=True)
                    (conv1): Conv2d(128, 256, kernel_size=(3, 3), stride=(1, 1), padding=(1, 1))
                    (norm2): GroupNorm(32, 256, eps=1e-06, affine=True)
                    (dropout): Dropout(p=0.0, inplace=False)
                    (conv2): Conv2d(256, 256, kernel_size=(3, 3), stride=(1, 1), padding=(1, 1))
                    (nonlinearity): SiLU()
                    (conv_shortcut): Conv2d(128, 256, kernel_size=(1, 1), stride=(1, 1))
                  )
                  (1): ResnetBlock2D(
                    (norm1): GroupNorm(32, 256, eps=1e-06, affine=True)
                    (conv1): Conv2d(256, 256, kernel_size=(3, 3), stride=(1, 1), padding=(1, 1))
                    (norm2): GroupNorm(32, 256, eps=1e-06, affine=True)
                    (dropout): Dropout(p=0.0, inplace=False)
                    (conv2): Conv2d(256, 256, kernel_size=(3, 3), stride=(1, 1), padding=(1, 1))
                    (nonlinearity): SiLU()
                  )
                )
                (downsamplers): ModuleList(
                  (0): Downsample2D(
                    (conv): Conv2d(256, 256, kernel_size=(3, 3), stride=(2, 2))
                  )
                )
              )
              (2): DownEncoderBlock2D(
                (resnets): ModuleList(
                  (0): ResnetBlock2D(
                    (norm1): GroupNorm(32, 256, eps=1e-06, affine=True)
                    (conv1): Conv2d(256, 512, kernel_size=(3, 3), stride=(1, 1), padding=(1, 1))
                    (norm2): GroupNorm(32, 512, eps=1e-06, affine=True)
                    (dropout): Dropout(p=0.0, inplace=False)
                    (conv2): Conv2d(512, 512, kernel_size=(3, 3), stride=(1, 1), padding=(1, 1))
                    (nonlinearity): SiLU()
                    (conv_shortcut): Conv2d(256, 512, kernel_size=(1, 1), stride=(1, 1))
                  )
                  (1): ResnetBlock2D(
                    (norm1): GroupNorm(32, 512, eps=1e-06, affine=True)
                    (conv1): Conv2d(512, 512, kernel_size=(3, 3), stride=(1, 1), padding=(1, 1))
                    (norm2): GroupNorm(32, 512, eps=1e-06, affine=True)
                    (dropout): Dropout(p=0.0, inplace=False)
                    (conv2): Conv2d(512, 512, kernel_size=(3, 3), stride=(1, 1), padding=(1, 1))
                    (nonlinearity): SiLU()
                  )
                )
                (downsamplers): ModuleList(
                  (0): Downsample2D(
                    (conv): Conv2d(512, 512, kernel_size=(3, 3), stride=(2, 2))
                  )
                )
              )
              (3): DownEncoderBlock2D(
                (resnets): ModuleList(
                  (0-1): 2 x ResnetBlock2D(
                    (norm1): GroupNorm(32, 512, eps=1e-06, affine=True)
                    (conv1): Conv2d(512, 512, kernel_size=(3, 3), stride=(1, 1), padding=(1, 1))
                    (norm2): GroupNorm(32, 512, eps=1e-06, affine=True)
                    (dropout): Dropout(p=0.0, inplace=False)
                    (conv2): Conv2d(512, 512, kernel_size=(3, 3), stride=(1, 1), padding=(1, 1))
                    (nonlinearity): SiLU()
                  )
                )
              )
            )
            (mid_block): UNetMidBlock2D(
              (attentions): ModuleList(
                (0): Attention(
                  (group_norm): GroupNorm(32, 512, eps=1e-06, affine=True)
                  (to_q): Linear(in_features=512, out_features=512, bias=True)
                  (to_k): Linear(in_features=512, out_features=512, bias=True)
                  (to_v): Linear(in_features=512, out_features=512, bias=True)
                  (to_out): ModuleList(
                    (0): Linear(in_features=512, out_features=512, bias=True)
                    (1): Dropout(p=0.0, inplace=False)
                  )
                )
              )
              (resnets): ModuleList(
                (0-1): 2 x ResnetBlock2D(
                  (norm1): GroupNorm(32, 512, eps=1e-06, affine=True)
                  (conv1): Conv2d(512, 512, kernel_size=(3, 3), stride=(1, 1), padding=(1, 1))
                  (norm2): GroupNorm(32, 512, eps=1e-06, affine=True)
                  (dropout): Dropout(p=0.0, inplace=False)
                  (conv2): Conv2d(512, 512, kernel_size=(3, 3), stride=(1, 1), padding=(1, 1))
                  (nonlinearity): SiLU()
                )
              )
            )
            (conv_norm_out): GroupNorm(32, 512, eps=1e-06, affine=True)
            (conv_act): SiLU()
            (conv_out): Conv2d(512, 8, kernel_size=(3, 3), stride=(1, 1), padding=(1, 1))
          )
          (decoder): Decoder(
            (conv_in): Conv2d(4, 512, kernel_size=(3, 3), stride=(1, 1), padding=(1, 1))
            (up_blocks): ModuleList(
              (0-1): 2 x UpDecoderBlock2D(
                (resnets): ModuleList(
                  (0-2): 3 x ResnetBlock2D(
                    (norm1): GroupNorm(32, 512, eps=1e-06, affine=True)
                    (conv1): Conv2d(512, 512, kernel_size=(3, 3), stride=(1, 1), padding=(1, 1))
                    (norm2): GroupNorm(32, 512, eps=1e-06, affine=True)
                    (dropout): Dropout(p=0.0, inplace=False)
                    (conv2): Conv2d(512, 512, kernel_size=(3, 3), stride=(1, 1), padding=(1, 1))
                    (nonlinearity): SiLU()
                  )
                )
                (upsamplers): ModuleList(
                  (0): Upsample2D(
                    (conv): Conv2d(512, 512, kernel_size=(3, 3), stride=(1, 1), padding=(1, 1))
                  )
                )
              )
              (2): UpDecoderBlock2D(
                (resnets): ModuleList(
                  (0): ResnetBlock2D(
                    (norm1): GroupNorm(32, 512, eps=1e-06, affine=True)
                    (conv1): Conv2d(512, 256, kernel_size=(3, 3), stride=(1, 1), padding=(1, 1))
                    (norm2): GroupNorm(32, 256, eps=1e-06, affine=True)
                    (dropout): Dropout(p=0.0, inplace=False)
                    (conv2): Conv2d(256, 256, kernel_size=(3, 3), stride=(1, 1), padding=(1, 1))
                    (nonlinearity): SiLU()
                    (conv_shortcut): Conv2d(512, 256, kernel_size=(1, 1), stride=(1, 1))
                  )
                  (1-2): 2 x ResnetBlock2D(
                    (norm1): GroupNorm(32, 256, eps=1e-06, affine=True)
                    (conv1): Conv2d(256, 256, kernel_size=(3, 3), stride=(1, 1), padding=(1, 1))
                    (norm2): GroupNorm(32, 256, eps=1e-06, affine=True)
                    (dropout): Dropout(p=0.0, inplace=False)
                    (conv2): Conv2d(256, 256, kernel_size=(3, 3), stride=(1, 1), padding=(1, 1))
                    (nonlinearity): SiLU()
                  )
                )
                (upsamplers): ModuleList(
                  (0): Upsample2D(
                    (conv): Conv2d(256, 256, kernel_size=(3, 3), stride=(1, 1), padding=(1, 1))
                  )
                )
              )
              (3): UpDecoderBlock2D(
                (resnets): ModuleList(
                  (0): ResnetBlock2D(
                    (norm1): GroupNorm(32, 256, eps=1e-06, affine=True)
                    (conv1): Conv2d(256, 128, kernel_size=(3, 3), stride=(1, 1), padding=(1, 1))
                    (norm2): GroupNorm(32, 128, eps=1e-06, affine=True)
                    (dropout): Dropout(p=0.0, inplace=False)
                    (conv2): Conv2d(128, 128, kernel_size=(3, 3), stride=(1, 1), padding=(1, 1))
                    (nonlinearity): SiLU()
                    (conv_shortcut): Conv2d(256, 128, kernel_size=(1, 1), stride=(1, 1))
                  )
                  (1-2): 2 x ResnetBlock2D(
                    (norm1): GroupNorm(32, 128, eps=1e-06, affine=True)
                    (conv1): Conv2d(128, 128, kernel_size=(3, 3), stride=(1, 1), padding=(1, 1))
                    (norm2): GroupNorm(32, 128, eps=1e-06, affine=True)
                    (dropout): Dropout(p=0.0, inplace=False)
                    (conv2): Conv2d(128, 128, kernel_size=(3, 3), stride=(1, 1), padding=(1, 1))
                    (nonlinearity): SiLU()
                  )
                )
              )
            )
            (mid_block): UNetMidBlock2D(
              (attentions): ModuleList(
                (0): Attention(
                  (group_norm): GroupNorm(32, 512, eps=1e-06, affine=True)
                  (to_q): Linear(in_features=512, out_features=512, bias=True)
                  (to_k): Linear(in_features=512, out_features=512, bias=True)
                  (to_v): Linear(in_features=512, out_features=512, bias=True)
                  (to_out): ModuleList(
                    (0): Linear(in_features=512, out_features=512, bias=True)
                    (1): Dropout(p=0.0, inplace=False)
                  )
                )
              )
              (resnets): ModuleList(
                (0-1): 2 x ResnetBlock2D(
                  (norm1): GroupNorm(32, 512, eps=1e-06, affine=True)
                  (conv1): Conv2d(512, 512, kernel_size=(3, 3), stride=(1, 1), padding=(1, 1))
                  (norm2): GroupNorm(32, 512, eps=1e-06, affine=True)
                  (dropout): Dropout(p=0.0, inplace=False)
                  (conv2): Conv2d(512, 512, kernel_size=(3, 3), stride=(1, 1), padding=(1, 1))
                  (nonlinearity): SiLU()
                )
              )
            )
            (conv_norm_out): GroupNorm(32, 128, eps=1e-06, affine=True)
            (conv_act): SiLU()
            (conv_out): Conv2d(128, 3, kernel_size=(3, 3), stride=(1, 1), padding=(1, 1))
          )
          (quant_conv): Conv2d(8, 8, kernel_size=(1, 1), stride=(1, 1))
          (post_quant_conv): Conv2d(4, 4, kernel_size=(1, 1), stride=(1, 1))
        )
      )
    )
    (model): SiT(
      (x_embedder): PatchEmbed(
        (proj): Conv2d(4, 768, kernel_size=(2, 2), stride=(2, 2))
        (norm): Identity()
      )
      (noise_labels_embedder): TimestepEmbedder(
        (mlp): Sequential(
          (0): Linear(in_features=256, out_features=768, bias=True)
          (1): SiLU()
          (2): Linear(in_features=768, out_features=768, bias=True)
        )
      )
      (noise_labels_next_embedder): TimestepEmbedder(
        (mlp): Sequential(
          (0): Linear(in_features=256, out_features=768, bias=True)
          (1): SiLU()
          (2): Linear(in_features=768, out_features=768, bias=True)
        )
      )
      (y_embedder): LabelEmbedder(
        (embedding_table): Embedding(1000, 768)
      )
      (blocks): ModuleList(
        (0-11): 12 x SiTBlock(
          (norm1): LayerNorm((768,), eps=1e-06, elementwise_affine=False)
          (attn): Attention(
            (qkv): Linear(in_features=768, out_features=2304, bias=True)
            (q_norm): Identity()
            (k_norm): Identity()
            (attn_drop): Dropout(p=0.0, inplace=False)
            (proj): Linear(in_features=768, out_features=768, bias=True)
            (proj_drop): Dropout(p=0.0, inplace=False)
          )
          (norm2): LayerNorm((768,), eps=1e-06, elementwise_affine=False)
          (mlp): Mlp(
            (fc1): Linear(in_features=768, out_features=3072, bias=True)
            (act): GELU(approximate='tanh')
            (drop1): Dropout(p=0, inplace=False)
            (norm): Identity()
            (fc2): Linear(in_features=3072, out_features=768, bias=True)
            (drop2): Dropout(p=0, inplace=False)
          )
          (adaLN_modulation): Sequential(
            (0): SiLU()
            (1): Linear(in_features=768, out_features=4608, bias=True)
          )
        )
      )
      (final_layer): FinalLayer(
        (norm_final): LayerNorm((768,), eps=1e-06, elementwise_affine=False)
        (linear): Linear(in_features=768, out_features=16, bias=True)
        (adaLN_modulation): Sequential(
          (0): SiLU()
          (1): Linear(in_features=768, out_features=1536, bias=True)
        )
      )
    )
  )
)
/mnt/ssd1/eun/2026/meanflow/alphaflow/env/lib/python3.11/site-packages/torch/distributed/distributed_c10d.py:4876: UserWarning: barrier(): using the device under current context. You can specify `device_id` in `init_process_group` to mute this warning.
  warnings.warn(  # warn only once
2026-03-09 02:02:46.280 | INFO     
…
